…
  - 每个epoch: $lr \leftarrow lr \times decay$
- Dropout: 0.2, 无weight decay
- Early Stop: 20个epoch
- 代码最大长度: 150
- 注释最大长度: 50
- 单个token最大长度: 30

*** Base

- encoder-decoder: 44.1M
- total: 76.1M

#+begin_src text
  +------------------------------------------------------------------------------+--------------+----------+
  | Layer Name                                                                   | Output Shape |  Param # |
  +------------------------------------------------------------------------------+--------------+----------+
  | embedder.src_word_embeddings.make_embedding.emb_luts.0.weight                | [34131, 512] | 17475072 |
  | embedder.tgt_word_embeddings.make_embedding.emb_luts.0.weight                | [28239, 512] | 14458368 |
  | embedder.tgt_pos_embeddings.weight                                           |    [52, 512] |    26624 |
  | encoder.transformer.layer.0.attention.key.weight                             |   [512, 512] |   262144 |
  | encoder.transformer.layer.0.attention.key.bias                               |        [512] |      512 |
  | encoder.transformer.layer.0.attention.query.weight                           |   [512, 512] |   262144 |
  | encoder.transformer.layer.0.attention.query.bias                             |        [512] |      512 |
  | encoder.transformer.layer.0.attention.value.weight                           |   [512, 512] |   262144 |
  | encoder.transformer.layer.0.attention.value.bias                             |        [512] |      512 |
  | encoder.transformer.layer.0.attention.output.weight                          |   [512, 512] |   262144 |
  | encoder.transformer.layer.0.attention.output.bias                            |        [512] |      512 |
  | encoder.transformer.layer.0.layer_norm.weight                                |        [512] |      512 |
  | encoder.transformer.layer.0.layer_norm.bias                                  |        [512] |      512 |
  | encoder.transformer.layer.0.feed_forward.intermediate.weight                 |  [2048, 512] |  1048576 |
  | encoder.transformer.layer.0.feed_forward.intermediate.bias                   |       [2048] |     2048 |
  | encoder.transformer.layer.0.feed_forward.output.weight                       |  [512, 2048] |  1048576 |
  | encoder.transformer.layer.0.feed_forward.output.bias                         |        [512] |      512 |
  | encoder.transformer.layer.0.feed_forward.layer_norm.weight                   |        [512] |      512 |
  | encoder.transformer.layer.0.feed_forward.layer_norm.bias                     |        [512] |      512 |
  | encoder.transformer.layer.1.attention.key.weight                             |   [512, 512] |   262144 |
  | encoder.transformer.layer.1.attention.key.bias                               |        [512] |      512 |
  | encoder.transformer.layer.1.attention.query.weight                           |   [512, 512] |   262144 |
  | encoder.transformer.layer.1.attention.query.bias                             |        [512] |      512 |
  | encoder.transformer.layer.1.attention.value.weight                           |   [512, 512] |   262144 |
  | encoder.transformer.layer.1.attention.value.bias                             |        [512] |      512 |
  | encoder.transformer.layer.1.attention.output.weight                          |   [512, 512] |   262144 |
  | encoder.transformer.layer.1.attention.output.bias                            |        [512] |      512 |
  | encoder.transformer.layer.1.layer_norm.weight                                |        [512] |      512 |
  | encoder.transformer.layer.1.layer_norm.bias                                  |        [512] |      512 |
  | encoder.transformer.layer.1.feed_forward.intermediate.weight                 |  [2048, 512] |  1048576 |
  | encoder.transformer.layer.1.feed_forward.intermediate.bias                   |       [2048] |     2048 |
  | encoder.transformer.layer.1.feed_forward.output.weight                       |  [512, 2048] |  1048576 |
  | encoder.transformer.layer.1.feed_forward.output.bias                         |        [512] |      512 |
  | encoder.transformer.layer.1.feed_forward.layer_norm.weight                   |        [512] |      512 |
  | encoder.transformer.layer.1.feed_forward.layer_norm.bias                     |        [512] |      512 |
  | encoder.transformer.layer.2.attention.key.weight                             |   [512, 512] |   262144 |
  | encoder.transformer.layer.2.attention.key.bias                               |        [512] |      512 |
  | encoder.transformer.layer.2.attention.query.weight                           |   [512, 512] |   262144 |
  | encoder.transformer.layer.2.attention.query.bias                             |        [512] |      512 |
  | encoder.transformer.layer.2.attention.value.weight                           |   [512, 512] |   262144 |
  | encoder.transformer.layer.2.attention.value.bias                             |        [512] |      512 |
  | encoder.transformer.layer.2.attention.output.weight                          |   [512, 512] |   262144 |
  | encoder.transformer.layer.2.attention.output.bias                            |        [512] |      512 |
  | encoder.transformer.layer.2.layer_norm.weight                                |        [512] |      512 |
  | encoder.transformer.layer.2.layer_norm.bias                                  |        [512] |      512 |
  | encoder.transformer.layer.2.feed_forward.intermediate.weight                 |  [2048, 512] |  1048576 |
  | encoder.transformer.layer.2.feed_forward.intermediate.bias                   |       [2048] |     2048 |
  | encoder.transformer.layer.2.feed_forward.output.weight                       |  [512, 2048] |  1048576 |
  | encoder.transformer.layer.2.feed_forward.output.bias                         |        [512] |      512 |
  | encoder.transformer.layer.2.feed_forward.layer_norm.weight                   |        [512] |      512 |
  | encoder.transformer.layer.2.feed_forward.layer_norm.bias                     |        [512] |      512 |
  | encoder.transformer.layer.3.attention.key.weight                             |   [512, 512] |   262144 |
  | encoder.transformer.layer.3.attention.key.bias                               |        [512] |      512 |
  | encoder.transformer.layer.3.attention.query.weight                           |   [512, 512] |   262144 |
  | encoder.transformer.layer.3.attention.query.bias                             |        [512] |      512 |
  | encoder.transformer.layer.3.attention.value.weight                           |   [512, 512] |   262144 |
  | encoder.transformer.layer.3.attention.value.bias                             |        [512] |      512 |
  | encoder.transformer.layer.3.attention.output.weight                          |   [512, 512] |   262144 |
  | encoder.transformer.layer.3.attention.output.bias                            |        [512] |      512 |
  | encoder.transformer.layer.3.layer_norm.weight                                |        [512] |      512 |
  | encoder.transformer.layer.3.layer_norm.bias                                  |        [512] |      512 |
  | encoder.transformer.layer.3.feed_forward.intermediate.weight                 |  [2048, 512] |  1048576 |
  | encoder.transformer.layer.3.feed_forward.intermediate.bias                   |       [2048] |     2048 |
  | encoder.transformer.layer.3.feed_forward.output.weight                       |  [512, 2048] |  1048576 |
  | encoder.transformer.layer.3.feed_forward.output.bias                         |        [512] |      512 |
  | encoder.transformer.layer.3.feed_forward.layer_norm.weight                   |        [512] |      512 |
  | encoder.transformer.layer.3.feed_forward.layer_norm.bias                     |        [512] |      512 |
  | encoder.transformer.layer.4.attention.key.weight                             |   [512, 512] |   262144 |
  | encoder.transformer.layer.4.attention.key.bias                               |        [512] |      512 |
  | encoder.transformer.layer.4.attention.query.weight                           |   [512, 512] |   262144 |
  | encoder.transformer.layer.4.attention.query.bias                             |        [512] |      512 |
  | encoder.transformer.layer.4.attention.value.weight                           |   [512, 512] |   262144 |
  | encoder.transformer.layer.4.attention.value.bias                             |        [512] |      512 |
  | encoder.transformer.layer.4.attention.output.weight                          |   [512, 512] |   262144 |
  | encoder.transformer.layer.4.attention.output.bias                            |        [512] |      512 |
  | encoder.transformer.layer.4.layer_norm.weight                                |        [512] |      512 |
  | encoder.transformer.layer.4.layer_norm.bias                                  |        [512] |      512 |
  | encoder.transformer.layer.4.feed_forward.intermediate.weight                 |  [2048, 512] |  1048576 |
  | encoder.transformer.layer.4.feed_forward.intermediate.bias                   |       [2048] |     2048 |
  | encoder.transformer.layer.4.feed_forward.output.weight                       |  [512, 2048] |  1048576 |
  | encoder.transformer.layer.4.feed_forward.output.bias                         |        [512] |      512 |
  | encoder.transformer.layer.4.feed_forward.layer_norm.weight                   |        [512] |      512 |
  | encoder.transformer.layer.4.feed_forward.layer_norm.bias                     |        [512] |      512 |
  | encoder.transformer.layer.5.attention.key.weight                             |   [512, 512] |   262144 |
  | encoder.transformer.layer.5.attention.key.bias                               |        [512] |      512 |
  | encoder.transformer.layer.5.attention.query.weight                           |   [512, 512] |   262144 |
  | encoder.transformer.layer.5.attention.query.bias                             |        [512] |      512 |
  | encoder.transformer.layer.5.attention.value.weight                           |   [512, 512] |   262144 |
  | encoder.transformer.layer.5.attention.value.bias                             |        [512] |      512 |
  | encoder.transformer.layer.5.attention.output.weight                          |   [512, 512] |   262144 |
  | encoder.transformer.layer.5.attention.output.bias                            |        [512] |      512 |
  | encoder.transformer.layer.5.layer_norm.weight                                |        [512] |      512 |
  | encoder.transformer.layer.5.layer_norm.bias                                  |        [512] |      512 |
  | encoder.transformer.layer.5.feed_forward.intermediate.weight                 |  [2048, 512] |  1048576 |
  | encoder.transformer.layer.5.feed_forward.intermediate.bias                   |       [2048] |     2048 |
  | encoder.transformer.layer.5.feed_forward.output.weight                       |  [512, 2048] |  1048576 |
  | encoder.transformer.layer.5.feed_forward.output.bias                         |        [512] |      512 |
  | encoder.transformer.layer.5.feed_forward.layer_norm.weight                   |        [512] |      512 |
  | encoder.transformer.layer.5.feed_forward.layer_norm.bias                     |        [512] |      512 |
  | decoder.transformer.layer.0.attention.key.weight                             |   [512, 512] |   262144 |
  | decoder.transformer.layer.0.attention.key.bias                               |        [512] |      512 |
  | decoder.transformer.layer.0.attention.query.weight                           |   [512, 512] |   262144 |
  | decoder.transformer.layer.0.attention.query.bias                             |        [512] |      512 |
  | decoder.transformer.layer.0.attention.value.weight                           |   [512, 512] |   262144 |
  | decoder.transformer.layer.0.attention.value.bias                             |        [512] |      512 |
  | decoder.transformer.layer.0.attention.output.weight                          |   [512, 512] |   262144 |
  | decoder.transformer.layer.0.attention.output.bias                            |        [512] |      512 |
  | decoder.transformer.layer.0.layer_norm.weight                                |        [512] |      512 |
  | decoder.transformer.layer.0.layer_norm.bias                                  |        [512] |      512 |
  | decoder.transformer.layer.0.context_attn.key.weight                          |   [512, 512] |   262144 |
  | decoder.transformer.layer.0.context_attn.key.bias                            |        [512] |      512 |
  | decoder.transformer.layer.0.context_attn.query.weight                        |   [512, 512] |   262144 |
  | decoder.transformer.layer.0.context_attn.query.bias                          |        [512] |      512 |
  | decoder.transformer.layer.0.context_attn.value.weight                        |   [512, 512] |   262144 |
  | decoder.transformer.layer.0.context_attn.value.bias                          |        [512] |      512 |
  | decoder.transformer.layer.0.context_attn.output.weight                       |   [512, 512] |   262144 |
  | decoder.transformer.layer.0.context_attn.output.bias                         |        [512] |      512 |
  | decoder.transformer.layer.0.layer_norm_2.weight                              |        [512] |      512 |
  | decoder.transformer.layer.0.layer_norm_2.bias                                |        [512] |      512 |
  | decoder.transformer.layer.0.feed_forward.intermediate.weight                 |  [2048, 512] |  1048576 |
  | decoder.transformer.layer.0.feed_forward.intermediate.bias                   |       [2048] |     2048 |
  | decoder.transformer.layer.0.feed_forward.output.weight                       |  [512, 2048] |  1048576 |
  | decoder.transformer.layer.0.feed_forward.output.bias                         |        [512] |      512 |
  | decoder.transformer.layer.0.feed_forward.layer_norm.weight                   |        [512] |      512 |
  | decoder.transformer.layer.0.feed_forward.layer_norm.bias                     |        [512] |      512 |
  | decoder.transformer.layer.1.attention.key.weight                             |   [512, 512] |   262144 |
  | decoder.transformer.layer.1.attention.key.bias                               |        [512] |      512 |
  | decoder.transformer.layer.1.attention.query.weight                           |   [512, 512] |   262144 |
  | decoder.transformer.layer.1.attention.query.bias                             |        [512] |      512 |
  | decoder.transformer.layer.1.attention.value.weight                           |   [512, 512] |   262144 |
  | decoder.transformer.layer.1.attention.value.bias                             |        [512] |      512 |
  | decoder.transformer.layer.1.attention.output.weight                          |   [512, 512] |   262144 |
  | decoder.transformer.layer.1.attention.output.bias                            |        [512] |      512 |
  | decoder.transformer.layer.1.layer_norm.weight                                |        [512] |      512 |
  | decoder.transformer.layer.1.layer_norm.bias                                  |        [512] |      512 |
  | decoder.transformer.layer.1.context_attn.key.weight                          |   [512, 512] |   262144 |
  | decoder.transformer.layer.1.context_attn.key.bias                            |        [512] |      512 |
  | decoder.transformer.layer.1.context_attn.query.weight                        |   [512, 512] |   262144 |
  | decoder.transformer.layer.1.context_attn.query.bias                          |        [512] |      512 |
  | decoder.transformer.layer.1.context_attn.value.weight                        |   [512, 512] |   262144 |
  | decoder.transformer.layer.1.context_attn.value.bias                          |        [512] |      512 |
  | decoder.transformer.layer.1.context_attn.output.weight                       |   [512, 512] |   262144 |
  | decoder.transformer.layer.1.context_attn.output.bias                         |        [512] |      512 |
  | decoder.transformer.layer.1.layer_norm_2.weight                              |        [512] |      512 |
  | decoder.transformer.layer.1.layer_norm_2.bias                                |        [512] |      512 |
  | decoder.transformer.layer.1.feed_forward.intermediate.weight                 |  [2048, 512] |  1048576 |
  | decoder.transformer.layer.1.feed_forward.intermediate.bias                   |       [2048] |     2048 |
  | decoder.transformer.layer.1.feed_forward.output.weight                       |  [512, 2048] |  1048576 |
  | decoder.transformer.layer.1.feed_forward.output.bias                         |        [512] |      512 |
  | decoder.transformer.layer.1.feed_forward.layer_norm.weight                   |        [512] |      512 |
  | decoder.transformer.layer.1.feed_forward.layer_norm.bias                     |        [512] |      512 |
  | decoder.transformer.layer.2.attention.key.weight                             |   [512, 512] |   262144 |
  | decoder.transformer.layer.2.attention.key.bias                               |        [512] |      512 |
  | decoder.transformer.layer.2.attention.query.weight                           |   [512, 512] |   262144 |
  | decoder.transformer.layer.2.attention.query.bias                             |        [512] |      512 |
  | decoder.transformer.layer.2.attention.value.weight                           |   [512, 512] |   262144 |
  | decoder.transformer.layer.2.attention.value.bias                             |        [512] |      512 |
  | decoder.transformer.layer.2.attention.output.weight                          |   [512, 512] |   262144 |
  | decoder.transformer.layer.2.attention.output.bias                            |        [512] |      512 |
  | decoder.transformer.layer.2.layer_norm.weight                                |        [512] |      512 |
  | decoder.transformer.layer.2.layer_norm.bias                                  |        [512] |      512 |
  | decoder.transformer.layer.2.context_attn.key.weight                          |   [512, 512] |   262144 |
  | decoder.transformer.layer.2.context_attn.key.bias                            |        [512] |      512 |
  | decoder.transformer.layer.2.context_attn.query.weight                        |   [512, 512] |   262144 |
  | decoder.transformer.layer.2.context_attn.query.bias                          |        [512] |      512 |
  | decoder.transformer.layer.2.context_attn.value.weight                        |   [512, 512] |   262144 |
  | decoder.transformer.layer.2.context_attn.value.bias                          |        [512] |      512 |
  | decoder.transformer.layer.2.context_attn.output.weight                       |   [512, 512] |   262144 |
  | decoder.transformer.layer.2.context_attn.output.bias                         |        [512] |      512 |
  | decoder.transformer.layer.2.layer_norm_2.weight                              |        [512] |      512 |
  | decoder.transformer.layer.2.layer_norm_2.bias                                |        [512] |      512 |
  | decoder.transformer.layer.2.feed_forward.intermediate.weight                 |  [2048, 512] |  1048576 |
  | decoder.transformer.layer.2.feed_forward.intermediate.bias                   |       [2048] |     2048 |
  | decoder.transformer.layer.2.feed_forward.output.weight                       |  [512, 2048] |  1048576 |
  | decoder.transformer.layer.2.feed_forward.output.bias                         |        [512] |      512 |
  | decoder.transformer.layer.2.feed_forward.layer_norm.weight                   |        [512] |      512 |
  | decoder.transformer.layer.2.feed_forward.layer_norm.bias                     |        [512] |      512 |
  | decoder.transformer.layer.3.attention.key.weight                             |   [512, 512] |   262144 |
  | decoder.transformer.layer.3.attention.key.bias                               |        [512] |      512 |
  | decoder.transformer.layer.3.attention.query.weight                           |   [512, 512] |   262144 |
  | decoder.transformer.layer.3.attention.query.bias                             |        [512] |      512 |
  | decoder.transformer.layer.3.attention.value.weight                           |   [512, 512] |   262144 |
  | decoder.transformer.layer.3.attention.value.bias                             |        [512] |      512 |
  | decoder.transformer.layer.3.attention.output.weight                          |   [512, 512] |   262144 |
  | decoder.transformer.layer.3.attention.output.bias                            |        [512] |      512 |
  | decoder.transformer.layer.3.layer_norm.weight                                |        [512] |      512 |
  | decoder.transformer.layer.3.layer_norm.bias                                  |        [512] |      512 |
  | decoder.transformer.layer.3.context_attn.key.weight                          |   [512, 512] |   262144 |
  | decoder.transformer.layer.3.context_attn.key.bias                            |        [512] |      512 |
  | decoder.transformer.layer.3.context_attn.query.weight                        |   [512, 512] |   262144 |
  | decoder.transformer.layer.3.context_attn.query.bias                          |        [512] |      512 |
  | decoder.transformer.layer.3.context_attn.value.weight                        |   [512, 512] |   262144 |
  | decoder.transformer.layer.3.context_attn.value.bias                          |        [512] |      512 |
  | decoder.transformer.layer.3.context_attn.output.weight                       |   [512, 512] |   262144 |
  | decoder.transformer.layer.3.context_attn.output.bias                         |        [512] |      512 |
  | decoder.transformer.layer.3.layer_norm_2.weight                              |        [512] |      512 |
  | decoder.transformer.layer.3.layer_norm_2.bias                                |        [512] |      512 |
  | decoder.transformer.layer.3.feed_forward.intermediate.weight                 |  [2048, 512] |  1048576 |
  | decoder.transformer.layer.3.feed_forward.intermediate.bias                   |       [2048] |     2048 |
  | decoder.transformer.layer.3.feed_forward.output.weight                       |  [512, 2048] |  1048576 |
  | decoder.transformer.layer.3.feed_forward.output.bias                         |        [512] |      512 |
  | decoder.transformer.layer.3.feed_forward.layer_norm.weight                   |        [512] |      512 |
  | decoder.transformer.layer.3.feed_forward.layer_norm.bias                     |        [512] |      512 |
  | decoder.transformer.layer.4.attention.key.weight                             |   [512, 512] |   262144 |
  | decoder.transformer.layer.4.attention.key.bias                               |        [512] |      512 |
  | decoder.transformer.layer.4.attention.query.weight                           |   [512, 512] |   262144 |
  | decoder.transformer.layer.4.attention.query.bias                             |        [512] |      512 |
  | decoder.transformer.layer.4.attention.value.weight                           |   [512, 512] |   262144 |
  | decoder.transformer.layer.4.attention.value.bias                             |        [512] |      512 |
  | decoder.transformer.layer.4.attention.output.weight                          |   [512, 512] |   262144 |
  | decoder.transformer.layer.4.attention.output.bias                            |        [512] |      512 |
  | decoder.transformer.layer.4.layer_norm.weight                                |        [512] |      512 |
  | decoder.transformer.layer.4.layer_norm.bias                                  |        [512] |      512 |
  | decoder.transformer.layer.4.context_attn.key.weight                          |   [512, 512] |   262144 |
  | decoder.transformer.layer.4.context_attn.key.bias                            |        [512] |      512 |
  | decoder.transformer.layer.4.context_attn.query.weight                        |   [512, 512] |   262144 |
  | decoder.transformer.layer.4.context_attn.query.bias                          |        [512] |      512 |
  | decoder.transformer.layer.4.context_attn.value.weight                        |   [512, 512] |   262144 |
  | decoder.transformer.layer.4.context_attn.value.bias                          |        [512] |      512 |
  | decoder.transformer.layer.4.context_attn.output.weight                       |   [512, 512] |   262144 |
  | decoder.transformer.layer.4.context_attn.output.bias                         |        [512] |      512 |
  | decoder.transformer.layer.4.layer_norm_2.weight                              |        [512] |      512 |
  | decoder.transformer.layer.4.layer_norm_2.bias                                |        [512] |      512 |
  | decoder.transformer.layer.4.feed_forward.intermediate.weight                 |  [2048, 512] |  1048576 |
  | decoder.transformer.layer.4.feed_forward.intermediate.bias                   |       [2048] |     2048 |
  | decoder.transformer.layer.4.feed_forward.output.weight                       |  [512, 2048] |  1048576 |
  | decoder.transformer.layer.4.feed_forward.output.bias                         |        [512] |      512 |
  | decoder.transformer.layer.4.feed_forward.layer_norm.weight                   |        [512] |      512 |
  | decoder.transformer.layer.4.feed_forward.layer_norm.bias                     |        [512] |      512 |
  | decoder.transformer.layer.5.attention.key.weight                             |   [512, 512] |   262144 |
  | decoder.transformer.layer.5.attention.key.bias                               |        [512] |      512 |
  | decoder.transformer.layer.5.attention.query.weight                           |   [512, 512] |   262144 |
  | decoder.transformer.layer.5.attention.query.bias                             |        [512] |      512 |
  | decoder.transformer.layer.5.attention.value.weight                           |   [512, 512] |   262144 |
  | decoder.transformer.layer.5.attention.value.bias                             |        [512] |      512 |
  | decoder.transformer.layer.5.attention.output.weight                          |   [512, 512] |   262144 |
  | decoder.transformer.layer.5.attention.output.bias                            |        [512] |      512 |
  | decoder.transformer.layer.5.layer_norm.weight                                |        [512] |      512 |
  | decoder.transformer.layer.5.layer_norm.bias                                  |        [512] |      512 |
  | decoder.transformer.layer.5.context_attn.key.weight                          |   [512, 512] |   262144 |
  | decoder.transformer.layer.5.context_attn.key.bias                            |        [512] |      512 |
  | decoder.transformer.layer.5.context_attn.query.weight                        |   [512, 512] |   262144 |
  | decoder.transformer.layer.5.context_attn.query.bias                          |        [512] |      512 |
  | decoder.transformer.layer.5.context_attn.value.weight                        |   [512, 512] |   262144 |
  | decoder.transformer.layer.5.context_attn.value.bias                          |        [512] |      512 |
  | decoder.transformer.layer.5.context_attn.output.weight                       |   [512, 512] |   262144 |
  | decoder.transformer.layer.5.context_attn.output.bias                         |        [512] |      512 |
  | decoder.transformer.layer.5.layer_norm_2.weight                              |        [512] |      512 |
  | decoder.transformer.layer.5.layer_norm_2.bias                                |        [512] |      512 |
  | decoder.transformer.layer.5.feed_forward.intermediate.weight                 |  [2048, 512] |  1048576 |
  | decoder.transformer.layer.5.feed_forward.intermediate.bias                   |       [2048] |     2048 |
  | decoder.transformer.layer.5.feed_forward.output.weight                       |  [512, 2048] |  1048576 |
  | decoder.transformer.layer.5.feed_forward.output.bias                         |        [512] |      512 |
  | decoder.transformer.layer.5.feed_forward.layer_norm.weight                   |        [512] |      512 |
  | decoder.transformer.layer.5.feed_forward.layer_norm.bias                     |        [512] |      512 |
  | generator.bias                                                               |      [28239] |    28239 |
  +------------------------------------------------------------------------------+--------------+----------+
#+end_src

*** Only-CA

- encoder-decoder: 44.1M
- total: 76.9M
#+begin_src text
  | copy_attn.linear_in.weight        |   [512, 512] |   262144 |
  | copy_attn.linear_out.weight       |  [512, 1024] |   524288 |
  | copy_generator.linear_copy.weight |     [1, 512] |      512 |
  | copy_generator.linear_copy.bias   |          [1] |        1 |
#+end_src

*** Only-RP

- encoder-decoder: 44.2M
- total: 76.2M
- encoder (代码)使用 relative position
- decoder (注释)使用 absolute position

#+begin_src text
  | encoder.L0.attention.rel_positions_embeddings_k.weight | [65, 64] | 4160 |
  | encoder.L0.attention.rel_positions_embeddings_v.weight | [65, 64] | 4160 |

  | encoder.L1.attention.rel_positions_embeddings_k.weight | [65, 64] | 4160 |
  | encoder.L1.attention.rel_positions_embeddings_v.weight | [65, 64] | 4160 |

  | encoder.L2.attention.rel_positions_embeddings_k.weight | [65, 64] | 4160 |
  | encoder.L2.attention.rel_positions_embeddings_v.weight | [65, 64] | 4160 |

  | encoder.L3.attention.rel_positions_embeddings_k.weight | [65, 64] | 4160 |
  | encoder.L3.attention.rel_positions_embeddings_v.weight | [65, 64] | 4160 |

  | encoder.L4.attention.rel_positions_embeddings_k.weight | [65, 64] | 4160 |
  | encoder.L4.attention.rel_positions_embeddings_v.weight | [65, 64] | 4160 |

  | encoder.L5.attention.rel_positions_embeddings_k.weight | [65, 64] | 4160 |
  | encoder.L5.attention.rel_positions_embeddings_v.weight | [65, 64] | 4160 |
#+end_src

*** Full

- Copy Attention + Relative Position
- encoder-decoder: 44.2M
- total: 77M

** 结果

四种模型对比
- BLEU / ROUGE-L
- 训练时长
- 几个例子

{{{new}}}
BLEU: 不考虑召回率, 三个模型差别较小
{{{image(70)}}}
[[./img/bleu.png]]

{{{new}}}
ROUGE-L: 考虑召回率, Full > Only-RP > Only-CA > Base
{{{image(70)}}}
[[./img/rouge.png]]

{{{new}}}

Full 模型测试集 BLEU 分布
{{{image(70)}}}
[[./img/test-bleu-bar.png]]

{{{new}}}
| 模型名  | Epoch | 训练总时长        |
…
